submissions/group_05/ghost_policy.pth (torch, 94801 bytes, 6 tensors)

net.0.weight f4 [128, 44]
00000000: 3df0 93ba c17b f33d 7d5c adbe 83b0 583d
00000010: 5573 f7be 9cce febe 25cb 21bd 6325 313e
00000020: 04e4 26bc 9a43 533e f0c6 17be 031d b0bd
00000030: 633a 7fbe 948c a4be 94d2 da3d 48c4 dcbd
00000040: 04b7 a83e d11a bfbd 3d46 60be 9140 5c3e
00000050: 172d 79bd 6f6b 5a3e 9a9b b63d 9022 9c3d
00000060: e420 54be cbb5 953a 0f32 ccbc 0a63 d43d
00000070: 7ea3 4e3e 17fd 58bd 80d9 d6bd b64f a4bc
00000080: 3237 59bd 6e20 8ebd 8bd1 383d 962a 8abd
00000090: ee7e 7cbd 6f67 d33d ae94 75bc 05c8 d73d
000000a0: afec 5ebd 8a20 86bd 7c3b dabc 3f57 6ebd
000000b0: 3217 dfbd a31d cbbd a258 19bd 614a 0a3e
000000c0: 078b 53bd 3a72 a5bb 4bd2 e03c 12a2 173e
000000d0: 4841 ae3c f89e 243e dc79 393e 154a 193d
000000e0: e432 0e3e 738c b5bc df63 edbc d839 2a3e
000000f0: 1cfc 8b3c 7a95 e83d 1185 9e3d b94a 44bd
00000100: a640 563b a49f 183c 524e cc3d 5335 0fbd
00000110: f9c3 de3d da46 c83e e87f dfbd 7d92 5f3e
00000120: ad50 033f 961d be3e 8bc8 033e 3c60 653d
00000130: a867 2d3e a43d 06be 53e0 643e 1d0b a4bd
00000140: 5dd6 c2be 17ce b43e d8de 87bd 6328 dbbd
00000150: 75d7 cfbd 3550 85bd 6414 ba38 fa8f 4cbd
00000160: 2c76 6d3d 6fb5 72be d657 c13e c7cb 7a3d
00000170: 63dc 32be 87d0 4a3e 5328 9fbe 397f 9cbd
00000180: 0d6e fd3c 2822 e23c c2df 3fbe 8e88 5d3e
00000190: 13ff cdbd cac8 4f3e 68fd 95be 3f93 f03d
000001a0: 5275 94bc 2db9 6c3e f507 2f3d 081e 03be
000001b0: b723 90bd 1a86 c03d f347 6d3d ea1f b0bd
000001c0: 4246 82be e5f5 443f d8a8 d03d 9d29 a9bf
000001d0: fb1d 57bf edae 233f d01f 71bd bace 97be
000001e0: 3395 fa3d c8f3 133c 2da4 723b 5014 97bd
000001f0: 37c3 e5be 109c 693d cc6a b6bd 1ae0 63bc
00000200: 72a5 44be 515b 7abe c6fe 033e 691a 90bd
00000210: 7523 c9bd 7397 453c 54e7 e9bc dd52 113c
00000220: d614 42be 64ca 6abe b2fb 063c 4ff5 d93d
00000230: d2f5 e63d 6389 883d 7962 573e 42d4 59bc
00000240: c23b 01be 4505 9bbd f3ea d83e 80ab f53d
00000250: 2ce4 6cbe 7863 8cbe 1bc9 9dbc dcc7 50bf
00000260: 2f25 a0bd 80ee 1f3e 1f90 223e 4da8 d4bd
00000270: 9028 413e d48a 8cbe 1afc b13d a540 15be
00000280: ba33 c5be 4f98 3ebe ee52 78bd 22af 26be
00000290: fb61 03bd b689 ff3a 5c32 b6bc ad98 06bd
000002a0: 3b55 343e 36c7 a0bd d3e3 303d 99f6 85bd
000002b0: ccde f63c 0c21 9e3d 4765 9f3d 52d6 623d
000002c0: d682 8ebc ca02 573e fc2f 203f 058d 2b3c
000002d0: 934b a83d 337c 9f3e 74df cd3e a1f7 953e
000002e0: 598b 9cbd 3eb0 5a3e 5867 5bbe 1c09 6ebc
000002f0: 76aa 0f3e d5c8 dbbd 9319 a5bd 02f2 473d
00000300: 90ca 65bc 4cf3 0b3e 2d04 0e3e 4eae 93bd
00000310: 9aed e8bd 5f6f e2bd 7e8d 46be 5990 883d
00000320: 07f9 153b 9060 0b3f 0447 85bf 1394 1a3d
00000330: cd17 8ec0 0483 0d3f 262e 10be 6620 9c3d
00000340: 24c0 673e c661 9c3c 06d6 663e 44d7 063d
00000350: 38d6 023c 93f9 763d 152f 82be 9c27 e53d
00000360: e81a 20bd 7f3e 56bd 2566 60bb 15bc 7abc
00000370: 245c 31bc efc0 2a3e ebf5 ffbc d651 273e
00000380: c72d 56be 5bd2 12bd fd23 19be 7214 bcbc
00000390: ad4e f3bd fb84 b53d 8a43 3dbd 76a0 9d3d
000003a0: 1bf7 703d 2649 c53d fecf 2e3e 6331 c13d
000003b0: 9fed 78ba 254b 47be 4a81 993c b1a5 c1bd
000003c0: 63b3 ef3d 8555 373d d87f ddbc a713 06bd
000003d0: a147 cd3d 2eb7 7d3e 07dc b7bd 441b 2abd
000003e0: 4fc0 d5be d361 bc3e 7793 cebd ecc4 ad3c
000003f0: 5662 bd3e 8481 34bd 4139 a5be 426d 85be
-0.0011286807 0.118888386 -0.33859625 0.05290271 -0.4833018 -0.49767005 -0.039500374 0.17299418
-0.010186199 0.20631257 -0.14821982 -0.085992835 -0.24924617 -0.32138503 0.10684696 -0.10779625
0.3295213 -0.09331287 -0.21901794 0.21509005 -0.060834017 0.21330045 0.089163974 0.0762378
-0.20715672 0.0011421976 -0.024926214 0.10370453 0.20179555 -0.05297574 -0.104907036 -0.02005754
-0.053031154 -0.06939779 0.04512171 -0.06746404 -0.061644487 0.10322463 -0.014989061 0.105361976
-0.054424938 -0.06549175 -0.026639692 -0.058188673 -0.10893096 -0.09917762 -0.037438042 0.13504936
-0.05164626 -0.0050490173 0.027444026 0.14807919 0.021271363 0.16076267 0.18112892 0.037424166
0.138866 -0.022161698 -0.028978286 0.16623628 0.017087989 0.113566354 0.07740224 -0.047922824
0.0032692342 0.009315405 0.09975876 -0.034962963 0.108772226 0.39116555 -0.10913068 0.21833225
0.51294976 0.37131947 0.1286947 0.05599998 0.16934073 -0.13109452 0.22351198 -0.08009932
-0.3805417 0.35313484 -0.06634301 -0.107010625 -0.10148517 -0.06509439 8.872969e-05 -0.049941994
0.057974026 -0.23702024 0.37762326 0.061229493 -0.17466883 0.1980611 -0.31085452 -0.07641453
0.030936265 0.027604178 -0.187377 0.21634123 -0.10058417 0.20291439 -0.29294896 0.11746835
-0.018122349 0.23117514 0.042732198 -0.12804425 -0.07038062 0.09400578 0.057929944 -0.08599837
-0.25444227 0.76937705 0.101884544 -1.3215824 -0.8403012 0.6393879 -0.05886823 -0.29649907
0.12235489 0.00903029 0.0037024126 -0.07376921 -0.448755 0.0570336 -0.08907089 -0.01390841
-0.19203737 -0.24448897 0.12890157 -0.07036287 -0.09821216 0.012060034 -0.028552689 0.008869854
-0.18953261 -0.22928768 0.00823872 0.10642492 0.11277355 0.066668294 0.21033658 -0.013295235
-0.12620452 -0.075693645 0.42366752 0.11995602 -0.23133916 -0.2741964 -0.019260934 -0.8155496
-0.07819592 0.15618324 0.1587529 -0.10383663 0.1886313 -0.27449667 0.08690663 -0.14575441
-0.38516027 -0.18612789 -0.060625963 -0.16277745 -0.032075863 0.0019495997 -0.02224081 -0.032860447
0.17610638 -0.078504965 0.04318602 -0.065411754 0.030135535 0.07721147 0.07782989 0.055380173
-0.017396372 0.20997158 0.6257322 0.010470633 0.0821754 0.31149444 0.40209544 0.29290488
-0.07643766 0.21356294 -0.21426141 -0.014528539 0.1402987 -0.10731665 -0.080615185 0.04881478
-0.014025345 0.13667029 0.1386878 -0.0721098 -0.11373444 -0.110563986 -0.19389912 0.06668157
0.0022884028 0.5444422 -1.0412297 0.03773887 -4.4404054 0.5527804 -0.14080104 0.07623367
0.2263189 0.01908959 0.22542581 0.032920137 0.007985644 0.060296606 -0.25426546 0.111891955
-0.03908816 -0.052305695 -0.003424057 -0.015303631 -0.010825191 0.16675161 -0.031245193 0.16339812
-0.209159 -0.03584514 -0.14955135 -0.022958968 -0.118802406 0.08863255 -0.04620699 0.07696621
0.05882941 0.096330926 0.1707153 0.09433248 -0.00094958575 -0.19462259 0.018738408 -0.09455431
0.11704137 0.044759292 -0.0270385 -0.032733586 0.10023428 0.24776909 -0.08977514 -0.04152991
-0.41748282 0.36793384 -0.100867204 0.021212064 0.36989087 -0.04406883 -0.32270244 -0.2605992

net.0.bias f4 [128]
00000000: 1eef eb3d eaaf 763c 2edf 66bd b051 5d3d
00000010: 6c21 60bd 8f64 71bd 1cbf a13d a21c 79bd
00000020: ead4 d7bd 109d 9dbd 7a09 19bd 8b19 3fbe
00000030: b112 4abe fab9 3c3e bde0 463d 5205 793d
00000040: a6fb 22be 401b 8dbd 8563 233d 85b8 6ebd
00000050: 2db3 14be 70be 11bb b8a5 a13d 4fd1 9f3c
00000060: 0e1c f9b9 2e06 3d3e 90de c23c 6007 78be
00000070: 9e37 2b3b 01d7 723d d03c 2bbd 2913 b13d
00000080: 06b1 47be 4c84 14bd 59a6 0d3d 1ff2 d4bd
00000090: 46ef d8bd 23f8 653e 5331 1fbd 5393 7fbd
000000a0: 5f98 b53e 407b 493e 932f dabd 9111 0ebe
000000b0: 74a6 8fbe 1031 90be 985a 40be 61d1 163e
000000c0: 4f89 26be 8fca 323e ff7a 203d 4efb d8bd
000000d0: 2db2 30bd eada f539 cdf4 04be 07fb 28be
000000e0: 1842 f53b 4002 a9bd 41bb 363d 39ab 823d
000000f0: 1993 3fbe 26f2 12be f3eb afbe ad3e 253d
00000100: 246f 2bbd cfb3 aebd f4d1 7ebd 451f b53d
00000110: b91b a03c 99b0 1cbe 2a78 6fbe 4016 6d3d
00000120: febd 12be b5ca dabd 87a5 363e 08e0 b8bd
00000130: c63c 6bbd bd42 adbd 0b64 acbd f52a 12bd
00000140: ae9a e23d dfc1 093e 9425 f8bd 98c7 a1bd
00000150: f0f4 15be 4239 35ba 1653 b4bd 3644 03bc
00000160: 7f16 afbb 99b2 87be f0d8 fcbd c2fe 8dbe
00000170: cb4d fbbd ec72 143d a383 293e 589e 9ebd
00000180: 9db8 4e3d b72c 68bc e21d 1a3c 2d9a c43d
00000190: bb1d 51be 0eb9 f83b b60c aabd 1900 6d3d
000001a0: 26de 933c f8df 6c3e 156c 8c3d 7113 7cbd
000001b0: fba9 30bc 677d 9dbc acfa aabd 3963 29be
000001c0: 3198 e93c e058 083e df3f 113e 455d 5fbd
000001d0: cdeb 383d 0b27 1dbc a677 38be 3d04 243d
000001e0: fc68 21be db22 1f3e a2e8 d83d 8f44 9dbd
000001f0: 2c84 acbe c9c3 033d 664a c3bc 702a 1abe
0.11520217 0.01505659 -0.056365184 0.05403298 -0.054719374 -0.05893379 0.07897779 -0.060818322
-0.10538657 -0.07695973 -0.037362553 -0.18662088 -0.19733693 0.1843032 0.04855417 0.06079609
-0.15916309 -0.06889963 0.03988983 -0.05828144 -0.14521475 -0.0022238754 0.078929365 0.019508986
-0.00047513883 0.18459389 0.023787767 -0.24221563 0.002612568 0.059287075 -0.041806042 0.08646233
-0.19501123 -0.03625898 0.03458247 -0.103977434 -0.10592513 0.22457938 -0.0388654 -0.06239636
0.35467812 0.19675922 -0.10653605 -0.13873889 -0.2805668 -0.28162432 -0.18784559 0.14728309
-0.16263317 0.17460082 0.0391798 -0.105948076 -0.04313867 0.00046893145 -0.12984009 -0.1650201
0.0074846856 -0.08252382 0.044612173 0.063803144 -0.18708457 -0.14350185 -0.34359702 0.040342975
-0.04185404 -0.085303895 -0.062211946 0.08843855 0.01954447 -0.15301742 -0.23385683 0.057882547
-0.14330289 -0.106831945 0.17836581 -0.090271056 -0.057431005 -0.08459995 -0.08417519 -0.0356855
0.11064659 0.13452862 -0.121165425 -0.078993976 -0.14644217 -0.0006913134 -0.0880491 -0.008011868
-0.005343258 -0.26503447 -0.12346065 -0.27733427 -0.12270697 0.03624241 0.16554122 -0.077450454
0.05046903 -0.014170817 0.009406539 0.09599719 -0.20421498 0.0075904196 -0.08303206 0.05786142
0.018050265 0.23132312 0.068565525 -0.06154198 -0.010782714 -0.019224836 -0.08348593 -0.16541757
0.028514953 0.13315153 0.14184521 -0.054532308 0.045146752 -0.009591828 -0.18014392 0.040043104
-0.15762705 0.1554064 0.10591246 -0.07679092 -0.3369459 0.032169137 -0.023839187 -0.15055251

net.2.weight f4 [128, 128]
00000000: 347a f3bd b8c9 a13a 8ce6 ccbd cdf7 53bb
00000010: f6c2 d03c 5491 7abd 8da8 873b 452d 1abd
00000020: 7efb 95bd 7947 04bd 3629 5cbc f9c1 373c
00000030: bddb d3bd 1e7a 923c 0ddf 8bbd 0ba1 fbbd
00000040: f2ee 56bd 3d83 00be 6d2d f2bb 436d ecbc
00000050: f9b3 48bd 90d9 96bd c3cb 5d3b b6db 20bd
00000060: 7a39 57bd 3886 beb9 6f4b 4c3c a3fc 87bd
00000070: 02bf 8dbd 14ce 91bd ae88 0f3d 77ec bdbc
00000080: a375 a7bd a381 193d 8f4d 7dbd 7386 1dbd
00000090: 1752 12bd 43ee 5fbd 9072 113d efb4 e3bb
000000a0: d4f6 d1ba be6f a0bd 0174 183c 67e2 ddbd
000000b0: 6b8e 3bbd da21 88bb f510 a0bd 8115 2abd
000000c0: 5f68 3bbd 4ce2 4f3a f98e 8dbd b0bf a338
000000d0: 5348 32bd 5d93 ec3c 8161 eabc fe81 e5bd
000000e0: 614b 54bd d6db d73c e49e 6ebb 73b0 e3bc
000000f0: d738 113c 6cab a6bb 9957 ebbc 1ee3 b2bd
00000100: 9082 04be 8b2f ad3c d3f6 193d 7e79 8bbd
00000110: 53c2 60bd c78f 15bd a356 45bd efb4 613d
00000120: d237 96bc 46dd 40bd 508a c6bd 3d41 82bc
00000130: fcd3 85bc 2a32 c9bc 07bb dd3b 13af 64ba
00000140: 2c9c 90bc b09c 00bd 2afc abbd 708d 083d
00000150: 64c7 e03c d6f0 fcbc 8aa2 893d d124 113d
00000160: 07e4 c63c c230 e43c ddf9 af3c 5d11 f2bc
00000170: 0c7c 0dbd 4176 cb3c 8f0b 75bd 4eb5 463c
00000180: 756c 9bbd 79d3 07bd dfbe b73b 6e5e 983c
00000190: 981a 023b 8ce1 60bb 8ca0 80bd e16f 633d
000001a0: 62eb f33c 2508 1a3d 876f c4bd 03c3 93bd
000001b0: 032b eebd 90cf 19bd 083d 583d aa15 bebd
000001c0: 4fdf b4bc 8dfa 26bd 401d d8bd 1362 97bc
000001d0: 9ff5 c7bc 8396 9dbd cea9 c2bd 4063 103d
000001e0: 422c 32bd 8a73 79bd b5ac 8bbd 0f73 7cbd
000001f0: 4dca 16bd 9d61 cabd 400f fbbb 29b2 8dbc
00000200: 3f97 e5bd dc4a 92bc 880b ee3d 5b4d 35bd
00000210: 9e60 873f 9126 2f3e 30db debd 54ce 1dbe
00000220: ff0d 8f3e fd7f 8cbd a5e8 88be ae02 943d
00000230: 8b14 07be c9bc d43d 5f4d 3d3e 9a54 9ebe
00000240: ad81 8cbd 3b2e 66bd 1a66 1e3e eebe 2b3d
00000250: 53a6 a73e 203e 48be a216 d6bd c15d 54be
00000260: 6b8f 623d 089a 38be 988d e4be 4765 34be
00000270: e62b a6be 1648 a63d b3aa 853e d498 c13d
00000280: 09de ddbe 444f 483e 1dd5 c73d e427 3e3e
00000290: 4567 d0bd f005 22bd beba ec3d 756b 9bbd
000002a0: 7b36 e8bd 955c 88bd 7d5b 393d 0184 293e
000002b0: 3b99 f73d 99ba f23c 5bfe 613d 760e a7bd
000002c0: 6ada 983d 074d 94bd 15a8 533d 5b11 e13d
000002d0: 5f2e 6a3b 392b 313e 984a 7c3d a394 02bf
000002e0: e0cd 21be 39ab 9b3e 3d4b d53d 6424 52be
000002f0: 1d13 823e 0b3a 3dbe 8cb4 b73e 7dbf ca3d
00000300: 1638 1e3e 77ce 14be 67c2 82be 9c3c 353d
00000310: 8b6d 403d 9d8e 91be 9a3c 8e3e bcb8 e1be
00000320: 0d38 a8be efb8 083b ff09 803d ef74 c2bb
00000330: 7128 123e 391d 173d cc85 21be b016 31be
00000340: 12b8 333d 195e 133e d04b 643e 8bf1 a23d
00000350: df28 a73d efdd cc3d 6c89 e7be a349 8abd
00000360: 8ed6 b5bd 915d bd3e 4e62 cabb d3f5 03bf
00000370: 5f99 8cbe 2eec 213e 4c5d 353d 0536 d43e
00000380: 5b24 fd3d 6050 293e a775 a5bd 3095 88bd
00000390: 8191 5c3e 0b06 49be 509f 4ebe f34e d7bd
000003a0: eb90 543e 9420 95bd 06c2 bd3d 49a7 103c
000003b0: 89e5 aeba 697f 85be 11b9 75be eac6 553e
000003c0: 85ea 753e 6f23 08be 3cb0 16be 513d 913d
000003d0: 0040 073e 9312 78bd f94c fb3d 1758 fc3d
000003e0: 4257 f73c c4b9 9d3d 8e89 08bc 332d b6bc
000003f0: e306 113e d642 dd3d ab4e 3f3e 47c6 c33d
-0.11888543 0.0012343442 -0.10004911 -0.0032343746 0.02548359 -0.061173752 0.004139966 -0.03764083
-0.07323359 -0.032294724 -0.01343756 0.01121568 -0.10344646 0.017880496 -0.06829653 -0.12286576
-0.05247397 -0.12550063 -0.007390669 -0.028860694 -0.04899976 -0.073657155 0.0033843375 -0.039272033
-0.05254505 -0.00036339625 0.012469157 -0.066399835 -0.069211975 -0.071193844 0.035042457 -0.023184044
-0.08176734 0.037477147 -0.061841544 -0.0384583 -0.03572282 -0.054670583 0.035509646 -0.006949059
-0.0016018995 -0.07833813 0.009305001 -0.108341984 -0.045790117 -0.004154426 -0.07815734 -0.041524414
-0.045753833 0.0007930144 -0.069120355 7.80815e-05 -0.043526005 0.028878862 -0.028610947 -0.11206435
-0.0518297 0.026349943 -0.0036410624 -0.027794098 0.008863649 -0.005086353 -0.028728293 -0.087347254
-0.1294043 0.021140834 0.037588906 -0.06810282 -0.054872822 -0.03651407 -0.048178326 0.055104192
-0.018337164 -0.047086023 -0.0969435 -0.015900249 -0.016336434 -0.024560053 0.00676668 -0.0008723598
-0.017652594 -0.03139943 -0.08397706 0.03333801 0.027438827 -0.030876558 0.06720455 0.0354355
0.024278654 0.02785528 0.021481449 -0.029549295 -0.03454213 0.024836661 -0.059825476 0.012128187
-0.07589046 -0.03316066 0.0056074704 0.018599715 0.0019852277 -0.0034314124 -0.06280622 0.055526618
0.029775325 0.037605423 -0.09591585 -0.0721493 -0.116292976 -0.037551463 0.05279258 -0.09281476
-0.022079138 -0.040766288 -0.10552454 -0.018479383 -0.024409113 -0.076947235 -0.09505044 0.035250902
-0.04349924 -0.060901202 -0.068200506 -0.061633166 -0.036814023 -0.098818995 -0.00766173 -0.017296867
-0.112104885 -0.017857961 0.11623293 -0.044263225 1.057636 0.17104556 -0.108816504 -0.15410739
0.27940366 -0.06860349 -0.26739994 0.072270736 -0.1319143 0.103875704 0.18486546 -0.3092392
-0.06860671 -0.056196433 0.15468636 0.04193013 0.32744083 -0.19554949 -0.104535356 -0.2073889
0.055312555 -0.18027508 -0.44639277 -0.17616759 -0.32455367 0.08119218 0.26106796 0.09452978
-0.43333462 0.19561487 0.09757445 0.18569905 -0.10175947 -0.039556444 0.11559056 -0.07588855
-0.11338516 -0.066582836 0.045253266 0.16554262 0.12089773 0.029629992 0.055174213 -0.08157055
0.07463534 -0.07241254 0.051673967 0.109896384 0.0035733206 0.17301644 0.061594576 -0.5100805
-0.15801191 0.3040407 0.10414741 -0.20521694 0.25405207 -0.18479173 0.35879934 0.09899805
0.15451083 -0.14531885 -0.25538942 0.044247255 0.04697947 -0.28429118 0.2778061 -0.44086254
-0.32855263 0.0020862182 0.062519066 -0.0059343497 0.1427324 0.036893103 -0.15773696 -0.17293811
0.043876715 0.14391364 0.22294545 0.07956227 0.081620924 0.10003268 -0.45222032 -0.06752326
-0.08878814 0.36985448 -0.0061762696 -0.51546973 -0.27460763 0.15812752 0.044278428 0.41447464
0.1236045 0.16534567 -0.08079081 -0.0666908 0.2153988 -0.19631211 -0.2017796 -0.10513105
0.20758407 -0.072816044 0.09265523 0.008828946 -0.0013343553 -0.2607377 -0.23996378 0.20876661
0.24015243 -0.13294767 -0.14715666 0.07091773 0.13208008 -0.06056459 0.12270541 0.12321489
0.030192975 0.077014476 -0.008333577 -0.02223835 0.14162783 0.108037636 0.18682353 0.09559303

net.2.bias f4 [128]
00000000: 1005 93bd ef8d b2bd 99d5 b03d 3733 fabd
00000010: 22e1 b1bd 8523 1dbd a62a d9bd b035 c4bd
00000020: 7393 0ebe 55c3 11bc 3f14 7ebd ecb9 a4bc
00000030: 8bef 09be 2555 aabc e54b 9b3c 9c71 65bd
00000040: d9cd 703c 126a 2cbd b489 6bbc aaef 70bd
00000050: 2941 4f3e 479f 333d 864d 31bd 8820 123e
00000060: edaf ebbc 91ba e13d 374e adbc 2f59 40bc
00000070: 5376 3abc 46d2 eabb ca65 efbc edff ab3a
00000080: c106 4dbd 6510 03be f772 a0bc 679b 32bc
00000090: f629 383d 8b0a 153c 0e86 aebd 34c2 c13d
000000a0: 2210 803d 6a01 d33d 5b2c 9bbd 5497 ebbd
000000b0: 9381 6abd 73fd 093d 14e9 50be 7db5 08bd
000000c0: 420d 42ba 1f98 113d 6a3d 12be fc12 a4bd
000000d0: bc45 193e 1ef1 65bd 3dcf 703e c847 aabd
000000e0: 6636 f73c fd81 88bd c47e 14be ebbd 5c3c
000000f0: aece 3fbc a469 5f3e 795c d23e e46e a93c
00000100: 05b1 abbd 456d c03d 097e 9cbd e0c2 2b3d
00000110: a288 103e 62e4 cf3d fcc7 aebd 93ce 30be
00000120: 3909 073d 86d9 cabd f8e0 9fbd db5b b3bd
00000130: 8fe0 98bb 87de 7cbd 8d5b af3d af70 113e
00000140: 1267 1d3d b8b4 5f3d ce8b 2bbd cec6 43bd
00000150: 381e 8bba 74f5 e4bd 7964 e7bd d7d9 823e
00000160: 8df5 203e 897d 443e 872e dbbb 2212 f93d
00000170: ec0c 763c e03b 32bd ca71 063e 4767 ddbb
00000180: 5649 5d3d 5205 803d ac94 963d 0dc2 f2bd
00000190: f521 50be 40f2 51bd 6c71 83bd d002 65bd
000001a0: 3bef 13be 7f60 fc3d c5ad 26be 6ccc 9b3e
000001b0: 0d8b 84bd d6d3 b1bb 6f38 06be 5929 30bc
000001c0: 7a6d 62bd e8a9 cdbd f868 39bd 402d f6b9
000001d0: 597f c4bc 1371 273d 661e 92bd 65d1 31bd
000001e0: b19f 7c3e 1233 b5bd a69a dbbd 7235 373d
000001f0: 98cd 1cbe de81 d0bd b0b1 60bc a47e 6fbd
-0.071787 -0.08718478 0.086344905 -0.122168 -0.08685519 -0.038363952 -0.10603838 -0.095805526
-0.13923435 -0.008896668 -0.062031027 -0.020108186 -0.13470285 -0.020792553 0.018957088 -0.05601655
0.014697515 -0.042093344 -0.014376093 -0.05882231 0.202397 0.04385307 -0.043286823 0.14270222
-0.028770411 0.11021913 -0.02115546 -0.011740013 -0.01138075 -0.00716618 -0.029223341 0.0013122536
-0.05005527 -0.12799223 -0.01958607 -0.010901309 0.044961892 0.009096752 -0.08521663 0.094608694
0.06253077 0.10303004 -0.075768195 -0.11503473 -0.057252478 0.033688974 -0.20401412 -0.033376206
-0.0007402488 0.035545465 -0.1428124 -0.080114335 0.14968008 -0.05613815 0.23516555 -0.083144724
0.030177306 -0.06665418 -0.14501482 0.013473014 -0.011706991 0.21817642 0.41086176 0.02068276
-0.08383373 0.093958415 -0.07641227 0.041933894 0.14114621 0.101509824 -0.08534238 -0.17266302
0.03296778 -0.099047706 -0.07806581 -0.087577544 -0.0046654413 -0.061735656 0.08562384 0.14203142
0.038428374 0.054615706 -0.041881375 -0.047797017 -0.0010613864 -0.11179629 -0.112984605 0.25556824
0.1571867 0.19188513 -0.006688896 0.12161662 0.015017729 -0.043514132 0.13129345 -0.0067566964
0.054025017 0.06251015 0.07352576 -0.118534185 -0.20325454 -0.05125642 -0.06418118 -0.055910885
-0.14446728 0.12323093 -0.16277225 0.304294 -0.06471834 -0.005426864 -0.13107465 -0.010752046
-0.055280186 -0.10042173 -0.04526612 -0.0004695449 -0.023986505 0.04087932 -0.07134704 -0.043412585
0.24670292 -0.088476315 -0.10722856 0.044728704 -0.15312803 -0.1018102 -0.013714239 -0.058470383

net.4.weight f4 [5, 128]
00000000: efd3 c1bd 93cc 8fbe 3286 fa3e f99c 1f3d
00000010: 133b 08bd ba2d 72bd 9e35 0ebd 37a4 8f3d
00000020: 1f1e 10bc 5540 4c3d fc8a 843c 0314 5dbe
00000030: ac48 1ebe f3e1 c6bd f97b 8e3d a40a 5abd
00000040: db88 f33c 39de b2be a08e 143d 9d4c 18be
00000050: 8489 c53e 5a5b 773e f5d1 3cbe 5e04 5ebd
00000060: 52ee 4a3d 336b 283f 077c 79be be0e afbd
00000070: b3dc dc3c a118 3bbe 6075 763e 823d d13d
00000080: 1faa 323d 3be1 e9bc 04b3 e33d f23a aa3c
00000090: 3af7 bdbd 2f3e 62be d153 48bd 4941 1c3e
000000a0: f75e 0fbe a74c 9fbd 1f89 acbd 1e3d fdbb
000000b0: bea3 07be 4565 253f d9e4 dcbf fab6 473e
000000c0: 1e33 e3be 348f 513e dfea d93d 5761 a03d
000000d0: 5af9 5c3c 6ef1 6a3e a28d c63e bc19 e03e
000000e0: 1698 2a3b b787 bbbf c42a ccbf 40d4 5dbd
000000f0: fb09 82bc 4fe4 403e b5df 313e 7714 f33e
00000100: f5d9 8f3d 9370 7f3e 4ca5 73bd 02ca d7be
00000110: db63 0bbe b47e 503e e967 f23d e11c 8dbe
00000120: 6c7d 343e 375f e6bd c087 e0be 2e9c 28be
00000130: d42a c63c 0b14 5fbe f7d3 e53d d89d adbd
00000140: eadb 073d 9878 ca3c 608b 99bd 111e 1cbe
00000150: 2a26 99bd c342 6b3c 9e2d 053d 35b9 dd3e
00000160: 1672 80be 96e1 3bbe a8e1 89be c3c0 65be
00000170: b7b3 9d3d 295c 5e3f c41b 8c3e b56d ce3c
00000180: 1394 773e 8aa5 993e ac1d 2cbd 9274 2d3d
00000190: b920 cf3e 2541 0bbd 5a89 b2bd 5f58 33be
000001a0: 34be a1bd 7d4f a4be c6f5 ccbe fca3 aa3e
000001b0: 034c a9bc 9b11 7b3d 2203 323e 1927 abbd
000001c0: 3bd9 5b3d 6dc0 893c 9db6 3bbd 408d 9bbd
000001d0: b28d 343c 416c 843e 791d 633d dffd 59bd
000001e0: 2d0e 093f 2f9e 953e 81e6 be3e 5174 7f3e
000001f0: c1a1 923d f41e 293d 0c8d 96bd 9532 16be
00000200: b3a5 61bc 52bb 8dbe ea6e 8b3d 5a95 e4bc
00000210: f11f ab3d 4528 9abc a85c 98bd a770 863c
00000220: beff 02bf 0cae 9ebd 9705 703d 8bb5 f7bd
00000230: dec5 0cbe 9736 463d d8fa ce3c 3655 1c3c
00000240: b640 48be 678d e43e 711e 5e3d 86bc 4abe
00000250: 15ab 2e3f 2ba3 b53b c2bf 893d c44c f4bd
00000260: da9c 803c 2e5d 253f 42a2 3c3e ffb3 c8bc
00000270: 95cc fe3c 07ee e2bd 5271 5c3e 1156 b7bd
00000280: e478 88bd 09a8 8abc 4ec5 cfbe e81a 9bbd
00000290: 4be1 ef3e b7d7 28bd d376 cabd e911 773e
000002a0: a99c 0d3e 9837 dc3d 041d 46bd 8277 cf3c
000002b0: 5b49 263e d67e b33e e754 dc3e 103e 8d3e
000002c0: 2729 32bf 460f c5bd 599a 66be b48b d3bf
000002d0: 6126 a3be a1e6 55be 3df7 cf3e 5950 e3bf
000002e0: fcbf 893d 944e f73e a717 ffbd 7eee 9d3d
000002f0: cac0 833c 42ba de3d adbf ac3e d201 b13d
00000300: e51c 56bd d853 173f faed 01be 9ebf 423e
00000310: 9996 a43e 3a6c a63c bc95 6a3b 1312 4e3d
00000320: 859d d43e 7c28 c4bd 4867 b73e c3b4 8f3b
00000330: 837a d93c 269c c73e 80c7 a5bb f7cd 2fbd
00000340: 9261 533d 257e 94bd be3b 10be 579a ca3b
00000350: 95e5 793d fb35 353d 91b2 c1bd 08d2 9b3d
00000360: 260f f7bc 063d d33e 22b0 e83e ae36 123e
00000370: 872b f03c 216d 093d 66f0 d6be d562 0d3b
00000380: 5e4a 1bbe dfcb 1d3f 63e1 0cbe 0dfe 39bc
00000390: 6b60 58be 5788 c5bd 1de1 3f3e 8262 f93c
000003a0: 8ac0 8cbd fdc1 1e3e c806 493d 7219 f43e
000003b0: ccbd 0d3d 57e4 92bc e5eb 393e d34e 123d
000003c0: ab80 503d cedf f43d bc7d e7bb 9881 9e3d
000003d0: 8da7 373c fd8d c9be e7eb 173b f6ba e3bc
000003e0: 6bcc f33e 60d1 3abe 4501 95be 8f58 4bbe
000003f0: 981b 87bd 5afa 1c3e aa7e 3e3d 68dc 18bd
-0.09464251 -0.28085765 0.48930508 0.03896806 -0.033259463 -0.05912564 -0.034719102 0.07013743
-0.008796244 0.04986604 0.016179554 -0.21589665 -0.1545741 -0.09711065 0.0695724 -0.053232804
0.029728344 -0.34935167 0.03626883 -0.14872976 0.3858148 0.24155942 -0.18439467 -0.054203384
0.049543686 0.65788573 -0.24363719 -0.08547734 0.026960706 -0.18271114 0.24068213 0.1021681
0.04361927 -0.028549781 0.11118129 0.02078006 -0.0927567 -0.22094034 -0.04890806 0.1525928
-0.1400107 -0.07778292 -0.08424591 -0.007728233 -0.13246056 0.6460765 -1.7257339 0.19503394
-0.44374937 0.20464784 0.10640501 0.07831066 0.013487184 0.2294366 0.38779932 0.43769634
0.0026030592 -1.4650792 -1.5950551 -0.054157495 -0.0158739 0.18837093 0.17370494 0.4747655
0.07023994 0.24945287 -0.05948381 -0.42146307 -0.1361231 0.20360833 0.118362255 -0.27561095
0.1762597 -0.112486295 -0.4385357 -0.16465828 0.024190344 -0.2178499 0.1122207 -0.08477372
0.03316871 0.024715707 -0.07497287 -0.15245844 -0.07477982 0.014359179 0.032514207 0.43305364
-0.2508704 -0.18347773 -0.26929975 -0.22436814 0.077002935 0.86859375 0.27364933 0.025198797
0.2417758 0.3000911 -0.042020485 0.0423475 0.40454653 -0.033997674 -0.08717604 -0.1751418
-0.078976065 -0.32091895 -0.4003126 0.33328235 -0.020666128 0.061296087 0.17384008 -0.08357067
0.053673964 0.016815389 -0.04582845 -0.07595301 0.011020111 0.2586384 0.05544803 -0.053220626
0.53537256 0.29222247 0.37285236 0.24946715 0.07159758 0.041289285 -0.07351121 -0.14667733
-0.013772416 -0.27681977 0.068082646 -0.027903248 0.08355702 -0.01881803 -0.07439548 0.016411139
-0.5117148 -0.077480406 0.05859908 -0.120951734 -0.13747355 0.048391905 0.025266096 0.0095418
-0.19555935 0.4463913 0.05422825 -0.19798478 0.682298 0.005543133 0.06726028 -0.119287044
0.015699793 0.64595306 0.18421271 -0.024499891 0.031103412 -0.11080556 0.21527603 -0.08951963
-0.06663683 -0.016925829 -0.4058022 -0.07573491 0.46851572 -0.041221347 -0.09885945 0.24127926
0.13829292 0.10752791 -0.048367515 0.02532554 0.1623892 0.35057706 0.43033525 0.27586412
-0.69594043 -0.09622054 -0.22519816 -1.6527009 -0.31865218 -0.20888759 0.40618315 -1.7758895
0.06726071 0.48302138 -0.12455683 0.077115044 0.01608314 0.108753696 0.33739987 0.08642925
-0.05227365 0.5911231 -0.12688437 0.19018409 0.32146147 0.020315278 0.0035794815 0.050310206
0.41526428 -0.09578034 0.35820985 0.004385562 0.026547676 0.3898632 -0.0050591826 -0.042921033
0.051606722 -0.07250623 -0.1408529 0.0061829495 0.061009962 0.044240933 -0.09457887 0.0760842
-0.03015859 0.41257495 0.4544688 0.14278671 0.02931763 0.03355134 -0.41980284 0.00215738
-0.15165088 0.6163921 -0.13757853 -0.011352074 -0.2113053 -0.096451454 0.18738218 0.03044248
-0.068726614 0.15503688 0.049078733 0.47675663 0.034604833 -0.017931147 0.18156393 0.035719704
0.050903957 0.1195675 -0.0070645493 0.07739562 0.011209381 -0.3936614 0.002318138 -0.02779911
0.47616896 -0.18243933 -0.2910253 -0.19858001 -0.0659706 0.15329877 0.046507515 -0.03731957

net.4.bias f4 [5]
00000000: 4606 4b3e eaa7 ee3d 8f7e 413d dedb dd3d
00000010: 61f1 463d
0.19826612 0.11653121 0.047239836 0.10832952 0.04857004
